app/src/main/assets/tsanet_model_android_cpu (1).pt (torch, 196210 bytes, 18 tensors)

weight f4 [32, 1, 3]
0	0x3ef894d0	0.48551035
1	0xbe702c80	-0.23454475
2	0x3eaba1ba	0.33521825
3	0x3e9c330f	0.30507705
4	0x3f02d36f	0.5110387
5	0x3dc7fbd6	0.09764831
6	0x3f0828c6	0.53187215
7	0x3ed43c68	0.41452336
8	0xb5ed8e60	-1.7699313e-06
9	0xbfa88847	-1.3166589
10	0xbfe87fb6	-1.8163974
11	0x3e82c480	0.25540543
12	0xbeb55591	-0.35416844
13	0xbc50ba58	-0.01273974
14	0xbeae61fc	-0.3405913
15	0x3eeef57b	0.46671662
16	0xbf14ce56	-0.58127344
17	0x3ee85549	0.45377567
18	0xbdad69d2	-0.08467449
19	0x3d0c02e4	0.034182444
20	0xbf0467fe	-0.5172118
21	0x3f096aac	0.53678393
22	0x3f1248ae	0.5714215
23	0x3df30085	0.118653335
24	0x3f066b30	0.52507305
25	0xbea7a8d4	-0.32745993
26	0x3eff50a2	0.49866205
27	0x3e99168c	0.29900014
28	0xbf78c062	-0.9716855
29	0x3e4eaaae	0.20182297
30	0x3eb26e66	0.34849852
31	0xbe455f21	-0.1927457
32	0x3d6c87f4	0.057746843
33	0xbf2d90c3	-0.67799014
34	0x3eb5e428	0.35525632
35	0xbed143aa	-0.40871936
36	0xbe91585c	-0.28387725
37	0xbf1c7594	-0.6111691
38	0xbeeabb83	-0.45846185
39	0x3ef26908	0.47345757
40	0x3ec25e0b	0.37962374
41	0x3dac441d	0.08411429
42	0x3e8c4cdd	0.27402392
43	0x3eb56bff	0.35433957
44	0xbf3f8150	-0.7480669
45	0x3e554df1	0.20830514
46	0xbd864889	-0.06556804
47	0xbed4eb53	-0.41585788
48	0x3f04c809	0.5186773
49	0x3eecd11b	0.46253285
50	0xbe8d1d4a	-0.27561408
51	0xbddb1465	-0.10697249
52	0x3f3f7ccd	0.74799806
53	0x3e325efd	0.17419048
54	0x3ccfcae3	0.025365299
55	0x3eda1dbf	0.4260082
56	0xbee49139	-0.44642046
57	0xbea99a01	-0.33125308
58	0xbe539e4f	-0.20665859
59	0xbc7c1553	-0.015385943
60	0x3e23ca73	0.15995197
61	0x3f23a0c9	0.63917214
62	0x3e659bb5	0.22422679
63	0x3e6c4213	0.2307208
64	0xbee10f77	-0.4395711
65	0x3e7f9633	0.2495964
66	0xbfb2c754	-1.396708
67	0xbfbd8404	-1.4805913
68	0xbf9c201c	-1.2197299
69	0x3f0a7679	0.54087025
70	0xbf14d34f	-0.5813493
71	0x3ea3aaec	0.3196634
72	0xbf49263a	-0.78573954
73	0xb9f20572	-0.00046161894
74	0xbfa16df5	-1.2611681
75	0xbe4fd9ca	-0.20297924
76	0xbed93332	-0.4242187
77	0xbe781a7b	-0.24228851
78	0x3e438216	0.19092593
79	0x3f181156	0.5940145
80	0xbf934f23	-1.1508526
81	0x3e6b8eaf	0.23003648
82	0xbef8ec8c	-0.4861797
83	0xbe8102a0	-0.25197315
84	0xbea1b2e0	-0.31581783
85	0x3ec144a1	0.37747672
86	0xbe250475	-0.16114981
87	0xbedd65fd	-0.43241873
88	0x3dcbcaac	0.09950766
89	0x3eca381a	0.39495927
90	0x3ee7133a	0.45131856
91	0xbc55cf8b	-0.01304997
92	0x3e25361b	0.16133921
93	0xbdbaa4e5	-0.091134824
94	0xbeed933b	-0.4640139
95	0xbe3944e4	-0.18092686

bias f4 [32]
0	0x3d5cd791	0.053916518
1	0x3f011962	0.50429356
2	0x3f03cde8	0.51486063
3	0xbe00a52f	-0.12563013
4	0xbee3ebcd	-0.4451584
5	0x3d87aa02	0.06624223
6	0x3f0c54ab	0.54816693
7	0x3edd006d	0.43164387
8	0xbcfee62b	-0.031115612
9	0x3da95421	0.082679994
10	0x3e7c237c	0.24622911
11	0x3c9eb951	0.019375475
12	0x3eaaca55	0.33357492
13	0xbf13021f	-0.5742511
14	0x3e763542	0.24043754
15	0x3e9294ae	0.2862906
16	0xbe7b53aa	-0.24543634
17	0xbd327408	-0.043567687
18	0xbf07e5b8	-0.530849
19	0xbf0459b8	-0.516994
20	0xbf123ad3	-0.5712101
21	0xbe82aa92	-0.2552076
22	0x3c406b8b	0.01174439
23	0x3ed90e54	0.42393744
24	0x3d075243	0.033037435
25	0xbd31d931	-0.04342002
26	0xbef8921b	-0.4854897
27	0xbefe27af	-0.4963965
28	0x3f0e3ccb	0.5556151
29	0x3da87533	0.08225479
30	0xbeb008b5	-0.34381643
31	0xbdc12164	-0.09430197

weight f4 [1, 32, 1]
0	0xbedd65b3	-0.43241653
1	0x3ea3474c	0.31890333
2	0x3e41c081	0.1892109
3	0xbe99b054	-0.3001734
4	0xbe090981	-0.13382532
5	0xbec4a7ac	-0.38409173
6	0x3f490268	0.78519297
7	0xbbc78828	-0.006089229
8	0xbf2fccc1	-0.68671805
9	0xbe993c4f	-0.29928824
10	0x3ede5175	0.43421522
11	0xbedcaffa	-0.4310301
12	0x3f17be93	0.5927517
13	0xbe517d5f	-0.20457982
14	0x3f1de512	0.6167766
15	0x3f3b47a2	0.7315618
16	0xbc9d2439	-0.019182311
17	0xbf25010f	-0.6445474
18	0xbcc60d53	-0.024176275
19	0xbd6c3e66	-0.057676695
20	0xbee25ffb	-0.44213852
21	0xbe4db093	-0.20086889
22	0x3f686713	0.9078228
23	0x3ecbddd2	0.39817673
24	0x3ea8e77f	0.32989118
25	0xbe03147b	-0.12800781
26	0xbe5b0c61	-0.21391441
27	0x3d8910a0	0.06692624
28	0x3f29c153	0.66310614
29	0xbf0eae63	-0.55734843
30	0xbd9709d7	-0.07374924
31	0x3e155e43	0.14586739

weight_ih_l0 f4 [128, 32]
0	0xbc44100c	-0.0119667165
1	0xbda9e4fa	-0.08295627
2	0xbe69df12	-0.22839001
3	0xbe8718a7	-0.26385996
4	0xbdf62421	-0.1201861
5	0xbe657052	-0.22406128
6	0xbe4beb01	-0.19913866
7	0xbe4efbbb	-0.20213215
8	0xbed053fe	-0.4068908
9	0xbed4a389	-0.41531017
10	0xbdcec219	-0.10095615
11	0xbe7ead85	-0.2487088
12	0xbd4bc2fc	-0.0497465
13	0x3f3eef48	0.74583864
14	0xbeb3f74f	-0.3514962
15	0xbe1c7772	-0.1527994
16	0xbeb18e38	-0.34678817
17	0xbe811f97	-0.25219414
18	0xbe17bdd4	-0.14818507
19	0xbdb3a218	-0.08771151
20	0x3c5d67c1	0.013513506
21	0xbddde2fe	-0.10834311
22	0x3e6a2793	0.22866659
23	0xbeb2eb5c	-0.3494519
24	0xbdbf3eb4	-0.093381315
25	0xbe08c083	-0.13354687
26	0xbe9b60a0	-0.30347157
27	0x3dff28b3	0.12458935
28	0xbd116063	-0.035492312
29	0xbd1a688e	-0.037697367
30	0xbedb7a88	-0.4286692
31	0x3db03630	0.086040854
32	0x3cf8c7e5	0.030368755
33	0x3bac2121	0.0052529727
34	0x3deec941	0.1165948
35	0x3e1a4884	0.15066725
36	0x3d672a95	0.056437094
37	0xbe1c7175	-0.15277655
38	0xbd290aae	-0.04126995
39	0x3db739ab	0.08946546
40	0xbdc4c4b5	-0.096078314
41	0x3e0414a0	0.12898493
42	0x3a680d89	0.00088521146
43	0x3d5507cb	0.052009385
44	0x3dc4b432	0.09604682
45	0x3e97ed65	0.29673305
46	0xbc8330a5	-0.016014406
47	0x3dc1f90f	0.09471332
48	0x3d959765	0.07304267
49	0xbe89f86a	-0.26947337
50	0xbcc803c4	-0.024415858
51	0xbd6ef423	-0.058338296
52	0xbd77b900	-0.060479164
53	0xbe5c21d2	-0.21497276
54	0x3efd4556	0.49466962
55	0x3d33fdd8	0.043943256
56	0x3de091bf	0.10965299
57	0x3e0e80dc	0.13916343
58	0x3c854d97	0.01627235
59	0x3dbb86ea	0.09156592
60	0x3da6f029	0.08151276
61	0xbd6e5f20	-0.058196187
62	0x3d3c75af	0.04601067
63	0xbe0a9650	-0.13533902
64	0xbea36a4b	-0.31917033
65	0xbeb19196	-0.34681386
66	0xbecba229	-0.39772156
67	0xbeede340	-0.4646244
68	0x3bbefd40	0.0058285296
69	0xbe185989	-0.14877905
70	0xbdbc00e7	-0.091798596
71	0xbe8428f8	-0.25812507
72	0xbe866d85	-0.26255432
73	0xbe96c4eb	-0.2944711
74	0xbdde06f2	-0.108411685
75	0xbed9b0bd	-0.42517653
76	0x3d1c129f	0.038103696
77	0x3f2758ce	0.6536988
78	0xbddca587	-0.10773759
79	0xbd467ac1	-0.04845691
80	0xbea9c5f2	-0.33158833
81	0xbd8bc854	-0.06825319
82	0xbdcdb068	-0.100434124
83	0xbe3170e7	-0.17328225
84	0xbdacfe94	-0.084469944
85	0x3e45bad2	0.19309548
86	0x3d3a7737	0.04552385
87	0xbdd08ee8	-0.10183507
88	0xbdf5dc5b	-0.1200492
89	0x3e198c3a	0.14994898
90	0xbe9df187	-0.30848333
91	0x3e2c6131	0.1683395
92	0xbcfb2227	-0.030655934
93	0xbea16ded	-0.3152918
94	0xbeb15a1b	-0.34639058
95	0x3d5f2470	0.05447811
96	0xbd335324	-0.04378046
97	0xbe16b2d0	-0.14716649
98	0xbde9e680	-0.114209175
99	0xbe8bfbaf	-0.27340457
100	0x3d4c6586	0.049901508
101	0xbe5fe232	-0.2186363
102	0x3d725b90	0.059169352
103	0xbe376d7b	-0.17912857
104	0xbe23a314	-0.15980178
105	0xbd6f56a4	-0.058432236
106	0xbe895beb	-0.2682794
107	0xbe64dc2e	-0.22349617
108	0xbd0d60e2	-0.034516223
109	0x3ee2a6f2	0.44267994
110	0xbd8c3014	-0.06845108
111	0xbd62c4b8	-0.055363387
112	0xbdd87d70	-0.105708
113	0x3c8666a1	0.01640636
114	0x3d9b503d	0.075836636
115	0x3d9b5e48	0.07586342
116	0x3de4fdfc	0.11181256
117	0xbe720ac8	-0.23636925
118	0x3f0627fd	0.5240477
119	0xba981382	-0.0011602493
120	0x3e6c46ff	0.23073958
121	0x3da4ceb8	0.08047241
122	0x3daad003	0.08340456
123	0x3ca83bcc	0.020536326
124	0xbe75b8cf	-0.2399628
125	0xbe140141	-0.14453603
126	0xbe4cc6ea	-0.19997755
127	0x3e091668	0.13387454
128	0xbc4a887d	-0.012361643
129	0x3c49c438	0.012314849
130	0x3da52d7f	0.08065318
131	0x3e10557e	0.14095113
132	0x3d82039d	0.063483454
133	0xbe09472d	-0.13406058
134	0xbd8cdb8d	-0.068778135
135	0xbd0ba08a	-0.03408865
136	0xbe61b8c8	-0.22043145
137	0x3e00f732	0.12594298
138	0x3d8244ef	0.06360804
139	0xbd74bc82	-0.059750088
140	0x3d9a2ed1	0.07528461
141	0x3f23e2ef	0.6401815
142	0xbe027a9b	-0.12742083
143	0x3d540010	0.051757872
144	0xbe4d660e	-0.20058462
145	0xbe7e53d9	-0.24836673
146	0xbde1ded9	-0.11028833
147	0xbe05c7ba	-0.13064471
148	0x3e192773	0.14956455
149	0xbe7685d3	-0.24074487
150	0x3ecd5f05	0.40111557
151	0xbe060532	-0.1308792
152	0x3e8fa3d1	0.2805467
153	0x3d5615fd	0.052267063
154	0x3e094842	0.1340647
155	0xbc7ac338	-0.015305333
156	0xbd0c2ae0	-0.034220576
157	0xbe37b925	-0.17941721
158	0x3ca88111	0.020569356
159	0xbe215151	-0.15753676
160	0xbe5a8606	-0.21340188
161	0xbeaef218	-0.34169078
162	0xbeb34574	-0.35013926
163	0xbecc4109	-0.39893368
164	0xbe22adf8	-0.15886676
165	0xbe6fe797	-0.23428188
166	0xbe8c3b9b	-0.27389225
167	0xbdf8e72e	-0.12153469
168	0xbe99e1f7	-0.3005521
169	0xbec7b6e9	-0.39006737
170	0xbd06aadd	-0.03287779
171	0xbefb7a25	-0.49116626
172	0xbe5066ac	-0.20351666
173	0x3f0e26e1	0.55528075
174	0xbea75a44	-0.32686055
175	0xbdc81572	-0.09769715
176	0xbe2b5095	-0.16729958
177	0xbde97dd4	-0.11400953
178	0xbe1a3eb6	-0.15062985
179	0x3d8b5e3e	0.06805085
180	0xbd866f16	-0.06564157
181	0xbdd15a39	-0.10222287
182	0x3e88f18f	0.26746795
183	0xbe6fd080	-0.2341938
184	0xbd28be65	-0.0411972
185	0x3df75799	0.12077255
186	0xbd890281	-0.06689931
187	0xbe0372d4	-0.12836772
188	0xbdcc6a20	-0.09981179
189	0xbe432313	-0.19056349
190	0xbeb93bd8	-0.3617847
191	0x3b8dcbdb	0.00432728
192	0xbe86a378	-0.26296592
193	0xbebe0837	-0.37115642
194	0xbe950bfc	-0.29110706
195	0xbed63010	-0.41833544
196	0x3da2e3f7	0.07953637
197	0xbebc2b98	-0.3675201
198	0xbe0c3764	-0.13693005
199	0xbeb166fd	-0.34648886
200	0xbe80ecff	-0.25180814
201	0xbed7f1c1	-0.4217663
202	0xbd87de12	-0.066341534
203	0xbec19d9f	-0.37815568
204	0xbdd99fd9	-0.10626192
205	0xbe566e22	-0.2094045
206	0xbeb49bc3	-0.35275087
207	0xbe6fe071	-0.23425461
208	0xbe968868	-0.29400945
209	0xbe7a052e	-0.24416038
210	0xbdb7b784	-0.0897055
211	0xbca991fe	-0.020699497
212	0xbe0ddb99	-0.13853301
213	0x3d883e5f	0.06652521
214	0xbe20f9b3	-0.15720253
215	0xbd451d17	-0.048123445
216	0xbebf6d51	-0.3738809
217	0xbca4568e	-0.020060804
218	0xbf0d3760	-0.5516262
219	0x3ddc1a83	0.10747244
220	0xbeb91574	-0.3614918
221	0xbeadddfb	-0.3395842
222	0xbe2a55ff	-0.16634367
223	0xbdf37839	-0.11888165
224	0xbd2a47c6	-0.041572355
225	0xbd1d8164	-0.038453475
226	0xbdcc9f84	-0.09991363
227	0xbdb5b32d	-0.08872066
228	0xbe234d13	-0.1594737
229	0xbe44e975	-0.19229682
230	0xbe633199	-0.22186889
231	0xbdaf1166	-0.0854824
232	0xbe8e563b	-0.27800164
233	0xbeadb17b	-0.3392447
234	0xbea81503	-0.3282853
235	0xbecd9400	-0.40151978
236	0x3db16615	0.08662049
237	0x3efca436	0.49344033
238	0xbf04b721	-0.5184193
239	0xbe6de5cf	-0.23232196
240	0xbd4d53a0	-0.05012858
241	0xbe1a4340	-0.15064716
242	0x3e22cc28	0.15898192
243	0xbccee29b	-0.025254538
244	0x3e3e156d	0.18562861
245	0x3e15ba13	0.14621763
246	0x3ed7e124	0.42163956
247	0xbeb04d6a	-0.34434062
248	0x3d479d05	0.04873373
249	0xbdd73d3d	-0.10509727
250	0xbe9fb15d	-0.31190005
251	0xbd7c3728	-0.06157604
252	0xbe900e42	-0.28135878
253	0xbdc7561b	-0.0973322
254	0xbe5c0fef	-0.21490453
255	0xbd4a3f76	-0.049376927

weight_hh_l0 f4 [128, 32]
0	0xbbaed9ed	-0.0053360374
1	0xbdd4a981	-0.10383893
2	0xbd1753fa	-0.03694532
3	0xbd043d3e	-0.032284968
4	0xbde548cb	-0.11195525
5	0xbdb0c918	-0.086321056
6	0x3d868121	0.06567598
7	0xbe536661	-0.20644523
8	0xbb1b71e8	-0.0023719016
9	0x38a44c52	7.834345e-05
10	0xbdd05a8f	-0.10173523
11	0x3d355f0e	0.044280104
12	0xbdc7f8c5	-0.09764246
13	0xbd58f5da	-0.052968837
14	0x3d83ce9d	0.06435893
15	0x3e267445	0.16255291
16	0x3cc4e7d6	0.02403633
17	0xbd95a59b	-0.07306977
18	0xbd895ac7	-0.067067675
19	0x3d7d674f	0.0618661
20	0xbe33f049	-0.1757213
21	0xbd31aa94	-0.043375567
22	0x3df81f51	0.12115348
23	0xbe1bc834	-0.1521309
24	0x3e02fe6d	0.12792368
25	0x3dddf1f7	0.10837167
26	0xbd127e95	-0.03576525
27	0x3c671920	0.014105111
28	0xbd6336d5	-0.055472214
29	0xbda6d1ce	-0.08145486
30	0xbe094cb1	-0.13408162
31	0x3d493df9	0.049131367
32	0x3e0c4c09	0.1370088
33	0x3e2d7580	0.16939354
34	0xbe4b2a72	-0.1984041
35	0x3d3d8afa	0.046275117
36	0x3e8be28b	0.27321276
37	0xbe1e4ee1	-0.15459777
38	0xbd24bf2c	-0.04022138
39	0x3c1f8739	0.009736829
40	0xbca86112	-0.0205541
41	0x3e36e5bf	0.17861079
42	0x3df0b88d	0.1175395
43	0xbd859cb7	-0.065240316
44	0xbdd66d71	-0.10470093
45	0x3e467f70	0.19384551
46	0x3cda8532	0.02667484
47	0x3d81b7e9	0.06333906
48	0x3d4a592f	0.04940146
49	0xbe564048	-0.20922959
50	0x3dd7d05f	0.105377905
51	0xbdfeb669	-0.12437136
52	0xbe8772d0	-0.26454782
53	0x3e28b207	0.16474162
54	0xbdc6485f	-0.096817724
55	0x3d212c89	0.039349113
56	0x3e60a09d	0.21936269
57	0x3dfef06a	0.12448199
58	0xbe2efc92	-0.17088535
59	0x3e3eb2c9	0.18622889
60	0x3dbd6e18	0.09249514
61	0xbc45c5b4	-0.012071062
62	0x3e570380	0.20997429
63	0x3e4c1c2d	0.19932623
64	0xbe892b28	-0.26790738
65	0xbe074ead	-0.13213606
66	0x3e78f4a8	0.24312079
67	0x3e72cbc6	0.23710546
68	0x3d4831ff	0.048875805
69	0x3de2239d	0.11041949
70	0xbdc7ebaf	-0.0976175
71	0xbe1852ea	-0.14875379
72	0x3d816fb0	0.06320131
73	0xbd086e75	-0.033308465
74	0xbe469676	-0.19393334
75	0x3dbf66c9	0.093457766
76	0x3e966bf3	0.29379234
77	0xbc031e02	-0.00800276
78	0xbe24321e	-0.16034743
79	0x3c8103c1	0.01574886
80	0xbe04f254	-0.12983066
81	0xbd11a295	-0.03555544
82	0x3dbc1984	0.09184554
83	0x3d9f65ab	0.077830635
84	0xbc937178	-0.017998442
85	0xbe3d9cda	-0.18516865
86	0x3e1ac24f	0.15113185
87	0x3e864c71	0.26230195
88	0xbc7f6e67	-0.015590287
89	0x3ddb62e5	0.10712222
90	0x3c53e808	0.0129337385
91	0xbc1de27a	-0.009636516
92	0xbdbdfe11	-0.09276975
93	0xbd892f30	-0.066984534
94	0xbd6c7137	-0.057725158
95	0xbe4557be	-0.19271752
96	0xbe016813	-0.12637357
97	0xbe4aef0f	-0.19817756
98	0x3d3356c5	0.04378392
99	0xbd78c241	-0.06073213
100	0xbe5185a9	-0.20461144
101	0x3e38ee10	0.18059564
102	0xbe8fd89a	-0.2809494
103	0xbe8fc8e7	-0.28082964
104	0x3e9b0292	0.30275398
105	0xbd440696	-0.047857843
106	0xbd0f7b93	-0.03502996
107	0xbd0b2035	-0.033966262
108	0x3e8c7ab1	0.27437356
109	0xbe51835d	-0.20460267
110	0xbe2f0b5e	-0.1709418
111	0x3e4e5da8	0.20152915
112	0x3d1e9964	0.038720503
113	0xbcd073fe	-0.025445934
114	0x3d45121f	0.048112985
115	0x3d594fb5	0.05305453
116	0x3e039619	0.12850226
117	0xbcb5a2f4	-0.022172429
118	0x3e4e8230	0.2016685
119	0x3e8fbc54	0.2807337
120	0xbd7494e9	-0.059712324
121	0x3dcb7b47	0.09935623
122	0x3cfb0434	0.030641653
123	0xbe2947c2	-0.1653128
124	0xbcbeff2a	-0.023315031
125	0xbdd651ff	-0.10464858
126	0xbd88c91e	-0.06678985
127	0xbdcb77bd	-0.09934948
128	0x3cf8aa7a	0.030354727
129	0xbdd52cbf	-0.10408925
130	0x3dd753c4	0.10514024
131	0xbd87c7b0	-0.06629884
132	0xbe2ac5ed	-0.16677065
133	0x3e421c83	0.18956189
134	0xbb987f54	-0.0046538506
135	0xbe834f66	-0.25646514
136	0x3e11d038	0.14239585
137	0x3d121f14	0.03567417
138	0xbe28ac15	-0.16471894
139	0x3d04531d	0.032305826
140	0x3def209d	0.11676142
141	0xbe390a16	-0.18070254
142	0x3e1ac617	0.15114628
143	0xbdabae56	-0.08382861
144	0xbe7b294b	-0.24527471
145	0x3c60928a	0.013706813
146	0xbe1e4f52	-0.15459946
147	0xbcaae62a	-0.020861704
148	0x3e20a72f	0.15688775
149	0x3d00fe11	0.031492297
150	0x3d2be9c1	0.041970972
151	0x3e320825	0.1738592
152	0x3d01e097	0.031708326
153	0xbd890cad	-0.06691871
154	0x3e1d822c	0.15381688
155	0x3c3d4dc1	0.0115541825
156	0xbd81e556	-0.063425705
157	0xbd312fbd	-0.043258417
158	0xbe43f6b0	-0.19137073
159	0x3de1cf3a	0.110258535
160	0xbe229058	-0.15875375
161	0x3a05dd10	0.0005106488
162	0x3dbf53aa	0.093421295
163	0x3dd2a44e	0.10285245
164	0x3d12a9a2	0.035806306
165	0x3e09eaa1	0.1346841
166	0xbe52ea14	-0.20597106
167	0xbd8824c6	-0.06647639
168	0x3e96ad4a	0.29429084
169	0x3d439ad2	0.04775507
170	0xbdebccc3	-0.115136646
171	0x3e3862b1	0.18006398
172	0x3b86faa4	0.004119234
173	0xbe3dcb93	-0.18534689
174	0xbe2e99d2	-0.17050865
175	0xbc8f09dc	-0.017460756
176	0xbe6d5550	-0.23177075
177	0x3e37eee6	0.17962226
178	0x3ba78c36	0.00511315
179	0x3e79883e	0.24368379
180	0xbcf81e25	-0.030287812
181	0xbe1860d3	-0.14880686
182	0x3c5f735f	0.013638346
183	0x3e222a6f	0.158365
184	0xbde54d96	-0.11196439
185	0x3dd2ca73	0.102925204
186	0xbb83622d	-0.004009506
187	0xbc7e9d4a	-0.01554043
188	0xbe29dc69	-0.16587986
189	0xbe453deb	-0.19261901
190	0xbeb0fa92	-0.3456617
191	0xbdc9520c	-0.09830102
192	0xbdd1be8d	-0.10241423
193	0x3d9635f9	0.07334513
194	0xbd026228	-0.03183189
195	0x3cebbfcc	0.02877798
196	0xbe0ff394	-0.14057761
197	0xbddb094e	-0.10695134
198	0xbe0eb416	-0.13935885
199	0xbdbbfc32	-0.09178962
200	0x3e7ba9ce	0.24576494
201	0xbd6dcb3b	-0.058055144
202	0xbe40eb59	-0.18839778
203	0x3e9bbe65	0.30418697
204	0x3e397b54	0.18113452
205	0xbdb60d46	-0.088892505
206	0xbe85c26f	-0.26124904
207	0x3ec76aa8	0.3894856
208	0xbe420fdf	-0.18951367
209	0x3e580e13	0.21099119
210	0xbe3eb835	-0.18624957
211	0x3e507f6a	0.20361105
212	0x3d1cbe5a	0.03826747
213	0xbd3223b7	-0.04349109
214	0x3b94fdb7	0.0045468467
215	0xbd780483	-0.060551178
216	0xbd92b6de	-0.071637854
217	0x3de73771	0.112898715
218	0x3e8a6a52	0.2703424
219	0xbd46866a	-0.04846803
220	0xbe5cc013	-0.21557645
221	0xbe829c9d	-0.2551011
222	0xbe80f4e8	-0.2518685
223	0x3b50ff24	0.0031890357
224	0xbe1f7338	-0.15571296
225	0xbde60555	-0.11231486
226	0x3d60ba6d	0.05486529
227	0x3d0a47d6	0.033759914
228	0xbe038c04	-0.1284638
229	0x3b3b0c73	0.0028541356
230	0x3d9d1f18	0.07671946
231	0xbe558c33	-0.20854263
232	0x38d34ebc	0.000100759295
233	0xbd4ff72b	-0.050772827
234	0xbe10187d	-0.14071842
235	0x3e204a51	0.1565335
236	0xbdb6cf4d	-0.08926258
237	0x3d2dc827	0.04242721
238	0xbe6ac3ad	-0.22926207
239	0x3e0ff225	0.14057215
240	0x3d6ab8a1	0.057304982
241	0x3e727157	0.23676048
242	0x3de2a8dc	0.110673636
243	0x3caaad04	0.020834453
244	0xbdb1600e	-0.08660899
245	0x3e0620f7	0.13098513
246	0xbd6a753a	-0.057240702
247	0xbd8699f8	-0.06572336
248	0x3e2c5e9d	0.16832967
249	0xbe00c06c	-0.12573403
250	0xbdc82877	-0.09773343
251	0xbe132fbd	-0.1437368
252	0xbda7f6ba	-0.08201356
253	0xbb8a0dd5	-0.0042130747
254	0xbe04ee73	-0.12981586
255	0x3e2991c2	0.16559508

bias_ih_l0 f4 [128]
0	0xbe3f6e19	-0.18694343
1	0x3e3437ff	0.17599486
2	0xbe89fe6e	-0.26951927
3	0xbe6c09f9	-0.2305068
4	0xbd6271df	-0.055284377
5	0xbeb43a7a	-0.35200864
6	0xbe7b8db0	-0.24565768
7	0xbe99bdf7	-0.30027744
8	0xbe9fd93c	-0.31220424
9	0xbe8f0914	-0.27936614
10	0xbea59364	-0.32339013
11	0xbe8f5dcc	-0.2800125
12	0xbe48ddd3	-0.19615869
13	0xbd967141	-0.0734582
14	0x3e7e62df	0.24842404
15	0xbc6c470e	-0.014421238
16	0x3ce1916a	0.02753516
17	0x3d4ea078	0.050446004
18	0xbe40e6ea	-0.18838087
19	0xbdba1431	-0.090858825
20	0xbe4012a3	-0.1875711
21	0xbe137243	-0.14399056
22	0x3d3d208a	0.04617361
23	0xbe5d6d8d	-0.21623822
24	0x39b11200	0.00033773482
25	0xbdd41ffe	-0.103576645
26	0x3c14d58a	0.009084115
27	0xbd9132de	-0.0708978
28	0x3e3fa517	0.1871532
29	0x3ce81cb6	0.028334003
30	0xbe84ed8d	-0.25962487
31	0xbd4fa855	-0.050697643
32	0xbd135d5f	-0.035977717
33	0xbc011223	-0.007877859
34	0x3eaf29e0	0.34211636
35	0x3e663649	0.22481646
36	0x3c045fe0	0.008079499
37	0x3dc5b971	0.09654511
38	0x3c570ce3	0.013125631
39	0x3dd0aa40	0.101887226
40	0xbcf43a1a	-0.029812861
41	0x3de50ed0	0.11184466
42	0x3d7cedc1	0.061750177
43	0x3e71c593	0.23610525
44	0xbdf79363	-0.12088659
45	0x3ec6b191	0.38807347
46	0x3dbec622	0.093151346
47	0x3e765e37	0.24059378
48	0x3ec91895	0.39276567
49	0x3ea4d8dd	0.32196704
50	0x3e8c3aa3	0.27388486
51	0xbe061815	-0.13095124
52	0xbcdc9418	-0.026926085
53	0x3ce70ab8	0.028203353
54	0xbcc0e917	-0.023548646
55	0x3e9c7aa3	0.30562314
56	0x3eb0e846	0.3455221
57	0xbdf941f0	-0.1217078
58	0x3e4f74ac	0.2025935
59	0x3eb537a0	0.35394
60	0x3e6e0373	0.23243503
61	0x3d254243	0.040346395
62	0xbdddb494	-0.10825458
63	0x3e683b4d	0.22678871
64	0x3d87bb74	0.06627551
65	0x3e8c7e2e	0.27440017
66	0xbdb8f605	-0.090312995
67	0xbd9181ba	-0.071048215
68	0x3e3ceb9c	0.18449253
69	0xbe50bdc2	-0.20384887
70	0x3d4b1671	0.04958195
71	0x3e91e661	0.28496078
72	0xbea507c7	-0.32232496
73	0xbe2421b5	-0.16028483
74	0x3e1186fa	0.14211646
75	0xbe8b7f90	-0.2724576
76	0xbe013a09	-0.12619795
77	0x3e32ffe7	0.17480431
78	0x3e9bd202	0.3043366
79	0xbe54a097	-0.20764385
80	0x3e183785	0.14864929
81	0xbe3b11dc	-0.18268532
82	0x3dac4f32	0.08413543
83	0xbe747b6b	-0.23875205
84	0x3dc5560c	0.09635553
85	0x3e21b65d	0.15792222
86	0xbda02a3d	-0.07820556
87	0xbe3866f4	-0.18008024
88	0x3dd49cfd	0.10381506
89	0x3cb799ab	0.022412142
90	0x3de3655e	0.11103319
91	0xbca8a2df	-0.020585475
92	0x3de50715	0.111829914
93	0xbda9be8d	-0.08288298
94	0x3e5cf526	0.21577892
95	0x3ce0699e	0.027394112
96	0xbdd117c7	-0.10209613
97	0x3deb7260	0.11496425
98	0x3e267d07	0.16258632
99	0xbd7c0b5e	-0.061534278
100	0xbc83819c	-0.016053014
101	0x3d2d91a1	0.04237521
102	0xbe8772f8	-0.26454902
103	0x3e916d20	0.28403568
104	0xbd12ec60	-0.035869956
105	0x3ed17521	0.40909675
106	0xbe97d1eb	-0.29652342
107	0x3dff2563	0.12458303
108	0x3e3d41d7	0.18482147
109	0x3c60f32d	0.013729853
110	0x3e500efe	0.20318219
111	0x3e1ba498	0.15199506
112	0x3e662d09	0.22478117
113	0x3dc446ee	0.09583841
114	0x3da59e06	0.08086781
115	0x3e86f4d5	0.26358667
116	0xbd421882	-0.047386654
117	0xbe1b8858	-0.1518873
118	0x3e04bcef	0.12962697
119	0x3e373f17	0.1789516
120	0x3dc9d88f	0.098557584
121	0xbdfa9b0c	-0.12236604
122	0x3d635a43	0.055506002
123	0xbc0f84de	-0.008759705
124	0xbc185d1e	-0.009299545
125	0xbdc5d56a	-0.09659846
126	0x3e310e3b	0.17290585
127	0x3dc28485	0.09497932

bias_hh_l0 f4 [128]
0	0xbe207117	-0.1566814
1	0x3e24111d	0.16022153
2	0xbebc5c44	-0.36789143
3	0x3c612a0e	0.013742937
4	0xbdefa213	-0.11700835
5	0xbe21a372	-0.15785006
6	0xbe8170b5	-0.252813
7	0xbe8bb5a1	-0.2728701
8	0xbe14c884	-0.14529616
9	0xbbfa84fe	-0.0076452484
10	0xbd54412b	-0.05181996
11	0x3cf0f36f	0.029412953
12	0xbe56bd73	-0.20970707
13	0xbdb21bda	-0.086967185
14	0x3cbf349d	0.023340518
15	0xbe5f8296	-0.21827158
16	0xbd1c7527	-0.038197663
17	0xbe26de6a	-0.16295782
18	0xbd5e9aaa	-0.054346718
19	0x3cedd7ff	0.029033659
20	0xbe056eed	-0.13030596
21	0xbe615a3c	-0.22007078
22	0x3e3e86cb	0.18606107
23	0xbd7a408c	-0.061096713
24	0xbdd959ec	-0.10612854
25	0xbe96d0c7	-0.2945616
26	0xbdc67f77	-0.09692281
27	0x3e364c6e	0.17802593
28	0xbd4a94c7	-0.04945829
29	0xbd0e431e	-0.034731977
30	0xbe09d88d	-0.13461514
31	0xbea2201c	-0.31665123
32	0xbda79efc	-0.08184621
33	0x3dfaa1c3	0.12237885
34	0x3ea2e02e	0.3181166
35	0x3d773444	0.06035258
36	0x3e3ea99a	0.18619385
37	0x3e37b895	0.17941506
38	0xbdbb41c1	-0.09143401
39	0xbd38668c	-0.04501967
40	0x3d8f6e94	0.07003513
41	0x3e9bf3a1	0.30459312
42	0xbda95827	-0.08268767
43	0x3e80b4ac	0.25137842
44	0xbde8fadf	-0.11375975
45	0x3e2a212b	0.16614215
46	0x3e393cfa	0.18089667
47	0xbd559c7a	-0.05215118
48	0x3ec1ef23	0.3787776
49	0x3e0aadb8	0.13542831
50	0x3ea476c1	0.32121852
51	0xbb2ca07b	-0.002634077
52	0x3d5b6287	0.05356076
53	0x3d0aaf38	0.033858508
54	0x3d67aa60	0.056558967
55	0x3d67a7ff	0.056556698
56	0x3e29d4b2	0.16585043
57	0x3bba12c3	0.005678506
58	0x3e681ba6	0.22666797
59	0x3ea5a7b0	0.32354498
60	0x3ea72914	0.32648528
61	0xbe510865	-0.20413359
62	0x3d9a3e32	0.07531394
63	0x3e35b843	0.17746072
64	0x3de8bb41	0.11363841
65	0xbd14623d	-0.0362265
66	0xbc3cca05	-0.011522775
67	0xbe2bf5ba	-0.16792956
68	0x3e596610	0.2123034
69	0x3da2144d	0.07914028
70	0xbc421d54	-0.011847813
71	0x3e48ba28	0.19602263
72	0xbeac7471	-0.33682588
73	0xbd82e87c	-0.06391999
74	0x3d8be7f6	0.068313524
75	0xbe0ed4a8	-0.1394831
76	0xbe2f8b3c	-0.17142957
77	0xbda01d27	-0.0781806
78	0x3e14dbec	0.14537019
79	0xbe1f2fa7	-0.15545522
80	0x3e1056d6	0.14095625
81	0xbe258126	-0.16162547
82	0x3d3f50ee	0.04670804
83	0xbe34a14d	-0.17639656
84	0xbc861646	-0.016368043
85	0xbbc1f893	-0.005919525
86	0xbe0fb37f	-0.14033316
87	0xbdd34586	-0.10315995
88	0x3e1258ba	0.14291659
89	0xbe0a2f87	-0.13494693
90	0xbe48aa2a	-0.19596162
91	0x3dd61823	0.104538225
92	0x3d1dd31e	0.038531415
93	0x3e0dc72f	0.13845514
94	0x3e94ac3e	0.2903766
95	0x3e0317e0	0.12802076
96	0x3d2a1e38	0.041532725
97	0x3e516b17	0.20451008
98	0x3deb6079	0.1149301
99	0x3d35db56	0.04439863
100	0x3e266c6c	0.16252297
101	0x3dcfc093	0.101441525
102	0xbe7b357a	-0.24532118
103	0x3e5605a9	0.20900597
104	0xbdf8db8b	-0.121512495
105	0x3ebf823f	0.37404057
106	0xbdfaef90	-0.12252724
107	0x3e1558a0	0.14584589
108	0x3e5c6e4d	0.21526451
109	0x3e1f8de0	0.15581465
110	0xbd9a090a	-0.07521255
111	0x3e20f320	0.15717745
112	0x3e751dcd	0.2393715
113	0x3ea232e6	0.31679457
114	0x3e63fd9d	0.22264715
115	0x3ce9c96d	0.02853843
116	0xbc879d6f	-0.016554562
117	0xbd381ce2	-0.04494942
118	0x3e5b209d	0.2139916
119	0xbd24565d	-0.040121425
120	0x3e6c1529	0.23054947
121	0xbe5b2cab	-0.21403758
122	0x3e60b835	0.2194527
123	0x3dc08339	0.09400029
124	0x3e356eb5	0.17718013
125	0xbe632b5a	-0.22184506
126	0x3e804676	0.25053757
127	0x3e2e04e7	0.16994058

weight f4 [1, 32]
0	0x3e615b99	0.22007598
1	0x3df02f5c	0.11727783
2	0xbec3d95a	-0.38251764
3	0xbea000a1	-0.3125048
4	0x3e600cf4	0.21879941
5	0xbeca9c31	-0.3957229
6	0x3e24ac8b	0.16081445
7	0x3eb8d202	0.36097723
8	0xbe121f08	-0.1426965
9	0x3ee5a138	0.44849563
10	0x3d44dda5	0.04806294
11	0x3eb1c480	0.3472023
12	0xbe91dd4f	-0.28489158
13	0x3e96dd2e	0.29465622
14	0x3d5d1d82	0.05398322
15	0x3eba9cc6	0.36447734
16	0x3e459079	0.19293393
17	0xbe7a1591	-0.2442229
18	0x3ef4ecb3	0.47836837
19	0xbe5fefe4	-0.21868855
20	0x3e867d2a	0.26267368
21	0x3d1df8e9	0.038567457
22	0xbdafecea	-0.0859011
23	0xbea1d8d5	-0.31610742
24	0x3e87ab51	0.26497892
25	0xbe47bac1	-0.19504835
26	0xbebaa0f1	-0.36450914
27	0x3e067f4e	0.131345
28	0x3dbf34d5	0.09336249
29	0x3c259bd2	0.010107951
30	0x3e41e23f	0.18933962
31	0x3f024d0f	0.5089883

weight f4 [64]
0	0x3f4d7a47	0.80264705
1	0x3f2fdd95	0.6869748
2	0x3f1b3692	0.6063014
3	0x3f971d03	1.1805729
4	0x3f800000	1.0
5	0x3f439857	0.7640433
6	0x3f364ad1	0.7120791
7	0x3f4339f6	0.76260316
8	0x3f4eb5a3	0.80745906
9	0x3f946d7e	1.1595914
10	0x3f1e9947	0.6195263
11	0x3f8ffab0	1.1248379
12	0x3f4eeb16	0.8082746
13	0x3fac6e48	1.3471155
14	0x3f8b6ff9	1.0893546
15	0x3f3d4fb7	0.7394976
16	0x3f591446	0.8479656
17	0x3f44df95	0.7690366
18	0x3f800000	1.0
19	0x3f800000	1.0
20	0x3f83bfe5	1.0292937
21	0x3fad2941	1.3528215
22	0x3ffc181e	1.969486
23	0x3f69c6e1	0.9131909
24	0x3fe3a6d3	1.7785286
25	0x3f800000	1.0
26	0x3faa1e6a	1.3290532
27	0x3f800000	1.0
28	0x3f600dab	0.87520856
29	0x3f7ebe41	0.99509054
30	0x3f98e17f	1.1943816
31	0x3f800000	1.0
32	0x3ef24861	0.47320846
33	0x3f5ff361	0.8748074
34	0x3f4daa16	0.80337656
35	0x3f943b3f	1.158058
36	0x3f800000	1.0
37	0x3f38f474	0.72248006
38	0x3f3abb7c	0.7294233
39	0x3f5144b8	0.8174548
40	0x3f54ba8b	0.8309714
41	0x3f2ff701	0.68736273
42	0x3f515ae8	0.81779337
43	0x3f4292fd	0.76005536
44	0x3f49e2b8	0.7886157
45	0x4001ec76	2.0300574
46	0x3f4d2150	0.80128956
47	0x3f13b548	0.5769849
48	0x3f80fa22	1.0076334
49	0x3f5965fe	0.8492125
50	0x3f800000	1.0
51	0x3f800000	1.0
52	0x3fbdbc84	1.4823155
53	0x3fa8c050	1.3183689
54	0x3fd44a5a	1.658519
55	0x3f549ea0	0.8305454
56	0x3f7de8c8	0.9918332
57	0x3f800000	1.0
58	0x3fb3b5f8	1.4039907
59	0x3f800000	1.0
60	0x3f4c8d9a	0.79903567
61	0x3f62bb4b	0.88567036
62	0x3f903a44	1.1267781
63	0x3f800000	1.0

bias f4 [64]
0	0x3e28dd72	0.16490725
1	0x3e4777d6	0.19479308
2	0x3e5a2d08	0.2130624
3	0x3dabccfe	0.083887085
4	0x38838fcc	6.273351e-05
5	0x3e200586	0.15627107
6	0xbe2a5b00	-0.16636276
7	0x3e3c8dab	0.18413417
8	0x3e3d1cf2	0.18468073
9	0x3dae48b5	0.085099615
10	0x3de17dbc	0.1101031
11	0x3db05cba	0.08611436
12	0xbe2bb16c	-0.167669
13	0x3e0e4cc0	0.13896465
14	0x3db33c1f	0.087517016
15	0xbe04fa4c	-0.12986106
16	0x3e82f2d1	0.2557588
17	0x3e187c88	0.14891255
18	0xbc3bff27	-0.011474407
19	0x3b4570f7	0.0030127147
20	0x3e6a308d	0.22870083
21	0x3e0f3585	0.1398526
22	0xbd7f4eb6	-0.062330924
23	0x3cacee1c	0.021109633
24	0xbd8766ec	-0.06611428
25	0xbc965bc9	-0.018354313
26	0x3e76ce6e	0.24102184
27	0x3c25e502	0.0101254005
28	0xbc9507e7	-0.018192245
29	0x3da22b48	0.079184115
30	0x3d65caa4	0.056101456
31	0x3bf270e0	0.0073987097
32	0x3dc59dea	0.0964926
33	0xbc0889f7	-0.008333675
34	0x3d377a19	0.044794176
35	0x3d66ce86	0.0563493
36	0x3c16e0d9	0.009208881
37	0x3d1153ee	0.035480432
38	0x3d1b363e	0.037893526
39	0x3da35ecd	0.07977066
40	0x3e0730c0	0.1320219
41	0xbca120ce	-0.019668963
42	0x3c17c36f	0.009262904
43	0x3c307699	0.010770463
44	0xbde198af	-0.1101545
45	0x3d51097b	0.051034432
46	0xbd3227f8	-0.04349515
47	0xbd98120e	-0.07425319
48	0x3e2d05cd	0.16896744
49	0x3e0a780d	0.13522358
50	0x3c1398b4	0.009008575
51	0x3b4179a1	0.002952196
52	0x3da96d5a	0.0827281
53	0x3c0d86fc	0.00863814
54	0xbd222f2c	-0.039595768
55	0xbdb00eaf	-0.08596551
56	0x3c06656e	0.008202894
57	0x3c0996dc	0.008397784
58	0x3dc96ad5	0.0983483
59	0xbc773219	-0.015087628
60	0x3d86998d	0.06572256
61	0x3d792a9a	0.060831644
62	0x3d3d74fc	0.046254143
63	0xbba8dab0	-0.0051530227

running_mean f4 [64]
0	0x3dd49ba2	0.10381247
1	0x3f0a95a2	0.5413457
2	0x3f0e3d7b	0.5556256
3	0x3b0a9548	0.0021146107
4	0x00000000	0.0
5	0x3dd7d84d	0.10539303
6	0x3ee3f74f	0.4452462
7	0x3f0198e8	0.5062394
8	0x3d7c11ad	0.061540294
9	0x3da1cb20	0.07900071
10	0x3e75411f	0.23950623
11	0x3cc8c35c	0.024507217
12	0x3e56aeee	0.20965168
13	0x3a8d14b1	0.0010763613
14	0x3e6b9b77	0.23008524
15	0x3e7282b0	0.23682666
16	0x3ce568da	0.028004099
17	0x3d9035f2	0.07041539
18	0x00000000	0.0
19	0x00000000	0.0
20	0x3b78ce46	0.0037964745
21	0x3ab4624c	0.0013762205
22	0x3b8dc595	0.004326532
23	0x3ecec6ca	0.4038604
24	0x3c890783	0.016727215
25	0x00000000	0.0
26	0x3b764f66	0.0037583946
27	0x00000000	0.0
28	0x3efc6c9f	0.4930162
29	0x3db6a025	0.08917264
30	0x3bb46df8	0.0055062734
31	0x00000000	0.0
32	0x3b7565ee	0.0037444788
33	0x3c9b9894	0.018993653
34	0x3c9e8c32	0.01935396
35	0x392172a8	0.0001539687
36	0x00000000	0.0
37	0x3b7cab8e	0.0038554403
38	0x3c78e902	0.015192272
39	0x3c917620	0.017756522
40	0x3b1c343b	0.0023834843
41	0x3b3fb09e	0.002924956
42	0x3c072581	0.008248688
43	0x3a81afc9	0.0009894307
44	0x3be76956	0.0070621176
45	0x386b9713	5.6169065e-05
46	0x3c021555	0.007939656
47	0x3c0342f5	0.008011569
48	0x3a85939e	0.0010191088
49	0x3b36daeb	0.0027901481
50	0x00000000	0.0
51	0x00000000	0.0
52	0x39485185	0.00019103855
53	0x38887dd6	6.508424e-05
54	0x3927bc7a	0.00015996574
55	0x3c66073a	0.014039809
56	0x3a1e9366	0.0006049186
57	0x00000000	0.0
58	0x393bc1aa	0.00017905855
59	0x00000000	0.0
60	0x3c8d28a8	0.0172313
61	0x3b6588d3	0.003502418
62	0x394a28c7	0.00019279412
63	0x00000000	0.0

running_var f4 [64]
0	0x3c598121	0.013275416
1	0x3c9c985b	0.019115617
2	0x3cc16ad5	0.023610512
3	0x3924a4e1	0.00015701681
4	0x00000004	6e-45
5	0x3c660988	0.014040358
6	0x3c843584	0.0161388
7	0x3d0a8841	0.033821348
8	0x3c887651	0.01665798
9	0x3ba50856	0.005036394
10	0x3bc0d9c7	0.005885336
11	0x3b5ef25b	0.0034018967
12	0x3c8995f4	0.016795136
13	0x38e0a83b	0.00010712488
14	0x3c6cfff3	0.01446532
15	0x3be6154f	0.007021583
16	0x3bc85761	0.006113932
17	0x3cc4b046	0.024009835
18	0x00000004	6e-45
19	0x00000004	6e-45
20	0x399edd07	0.00030300787
21	0x38d757a9	0.00010268327
22	0x37d053f8	2.4834633e-05
23	0x3ca96867	0.020679666
24	0x3956f4cc	0.00020499824
25	0x00000004	6e-45
26	0x39c6ace4	0.00037894316
27	0x00000004	6e-45
28	0x3c5467d7	0.0129642105
29	0x3ba2d1ab	0.004968842
30	0x3a068370	0.000513128
31	0x00000004	6e-45
32	0x38162da0	3.580528e-05
33	0x39891e6a	0.00026153337
34	0x398c8a5e	0.00026805972
35	0x3564e5cd	8.5271023e-07
36	0x00000004	6e-45
37	0x3836a5bf	4.3546544e-05
38	0x392b0d25	0.00016312728
39	0x398ad09d	0.0002647684
40	0x382f20b7	4.175372e-05
41	0x3789f808	1.6447171e-05
42	0x38485014	4.7758294e-05
43	0x3724fcb0	9.833995e-06
44	0x387d28f6	6.035805e-05
45	0x34fd2fcd	4.7159702e-07
46	0x3895a734	7.136018e-05
47	0x384f3cb0	4.9409166e-05
48	0x3789d0b6	1.6428861e-05
49	0x38900c1a	6.868709e-05
50	0x00000004	6e-45
51	0x00000004	6e-45
52	0x359f7f49	1.1883468e-06
53	0x34d1ee49	3.910266e-07
54	0x3396c64b	7.0209886e-08
55	0x39208d85	0.00015311509
56	0x352b2eb9	6.3770455e-07
57	0x00000004	6e-45
58	0x35a1eb1a	1.2063858e-06
59	0x00000004	6e-45
60	0x3954f954	0.00020310777
61	0x37e6b06d	2.7500291e-05
62	0x3588b1f5	1.0184582e-06
63	0x00000004	6e-45

weight_ih_l0 f4 [256, 64]
0	0x3ccd89d6	0.02509014
1	0x3cc148cb	0.02359428
2	0x3d739058	0.05946383
3	0xba54e46f	-0.00081211975
4	0x3e75d2e9	0.24006237
5	0xbd658d1e	-0.056042783
6	0x3e5de6c3	0.2167006
7	0xbdc67eb6	-0.09692137
8	0xbda31ae1	-0.07964111
9	0x3dabb17b	0.08383461
10	0xbd4d3cc5	-0.050106782
11	0xbe0c673f	-0.1371126
12	0xbd2cb3d7	-0.042163696
13	0xbe934068	-0.28760076
14	0x3eade0d6	0.339606
15	0x3e85e6db	0.2615269
16	0x3b56a101	0.0032749774
17	0xbe23dfbe	-0.1600332
18	0x3dbc6a5d	0.09199975
19	0xbe7fee9e	-0.24993369
20	0xbe901594	-0.28141463
21	0xbf1a3d03	-0.60249346
22	0xbefd00cc	-0.4941467
23	0x3dcc86cc	0.09986648
24	0xbedf5563	-0.43619832
25	0x3e7005ad	0.23439665
26	0xbe199ff3	-0.15002422
27	0x3dc29f6e	0.09503065
28	0x3d1f0ad8	0.0388287
29	0xbde04849	-0.10951287
30	0xbe5c4bd5	-0.21513303
31	0xbe3081a7	-0.17236958
32	0x3e01a4f0	0.12660575
33	0x3cf9860f	0.030459432
34	0x3dc4a5a9	0.0960191
35	0x3d68cebc	0.056837782
36	0xbe31e117	-0.17371021
37	0xbcabede5	-0.02098746
38	0x3ef42065	0.47680965
39	0x3ddfdcea	0.10930808
40	0xbe040256	-0.12891516
41	0xbcf22971	-0.029560776
42	0x3dfdc60b	0.12391289
43	0xbdd74017	-0.10510271
44	0xbc2ec009	-0.010665902
45	0xbf01255f	-0.5044765
46	0x3ed29004	0.411255
47	0x3e9b2440	0.30301094
48	0x3ddc3abc	0.1075339
49	0xbe122861	-0.14273216
50	0xbe129062	-0.1431289
51	0xbdfe172e	-0.12406765
52	0xbe127454	-0.14302188
53	0xbeaeb896	-0.34125203
54	0xbe618009	-0.22021498
55	0x3e4312ac	0.19050092
56	0xbe0e57ae	-0.13900635
57	0xbda138c5	-0.07872156
58	0xbe908c2f	-0.28231952
59	0x3e3a2f82	0.18182185
60	0x3df493d5	0.11942259
61	0x3dcba311	0.09943212
62	0xbe857b61	-0.26070693
63	0xbd8dd6d8	-0.06925744
64	0x3d79472c	0.06085889
65	0xbd3d0ef6	-0.046156846
66	0x3bb8329d	0.005621268
67	0xbd336edb	-0.043806892
68	0x3df919fb	0.121631585
69	0xbc9c7fb1	-0.019103857
70	0x3d660f81	0.05616713
71	0xbc50a5a4	-0.012734804
72	0x3dbf181f	0.093307726
73	0x3e891d6e	0.26780266
74	0x3ea50d9b	0.32236943
75	0xbdfed96a	-0.12443812
76	0xbe1093d7	-0.14118896
77	0xbd8412c8	-0.06448895
78	0x3d9b95d4	0.07596937
79	0x3e004912	0.12527874
80	0x3ce5d830	0.028057188
81	0xbd51d113	-0.05122478
82	0x3d3e5564	0.046468154
83	0xbe05acda	-0.13054219
84	0xbd48f040	-0.049057245
85	0xbdd2cfac	-0.102935165
86	0xbe450ec9	-0.19243921
87	0x3e7e8fd2	0.2485955
88	0xbe28cd68	-0.16484606
89	0x3e511219	0.2041706
90	0xbe28a436	-0.16468892
91	0x3d51b866	0.051201247
92	0xbc1d6ee9	-0.009608963
93	0xbd7edc70	-0.062221944
94	0x3d85c841	0.06532336
95	0xbd7473d2	-0.059680767
96	0x3dd7605d	0.10516427
97	0xbd6f97e5	-0.058494467
98	0x3c9d8055	0.019226233
99	0xbdab9319	-0.08377666
100	0xbe2b2832	-0.16714552
101	0x3c3fc0f5	0.011703719
102	0x3d732596	0.059362017
103	0x3da3e038	0.08001751
104	0x3c9b79f2	0.018979046
105	0xbc7df969	-0.015501359
106	0xbde8fa0e	-0.11375819
107	0xbe36acc7	-0.17839347
108	0xbe36b676	-0.17843041
109	0xbd604ec7	-0.054762628
110	0xbd5968de	-0.053078525
111	0xbcf5c2b2	-0.030000065
112	0xbcf92e00	-0.030417442
113	0xbdf639a4	-0.12022713
114	0xbe4552cd	-0.19269867
115	0xbdbf85d3	-0.09351697
116	0xbe835dcc	-0.256575
117	0xbe06271e	-0.1310086
118	0xbe289995	-0.16464837
119	0xbd1a0480	-0.037601948
120	0xbdfd3fcd	-0.12365685
121	0xbd9c28f5	-0.076249994
122	0xbe4821f7	-0.19544207
123	0x3cc3af4f	0.023887305
124	0xbd437ed4	-0.047728375
125	0xbe25ec59	-0.1620344
126	0x3e2680d8	0.16260087
127	0xbe607cb6	-0.21922573
128	0xbdeeb682	-0.11655904
129	0xbd99a0b0	-0.07501352
130	0xbd16e162	-0.036836036
131	0x3a33eb49	0.00068633683
132	0x3d97d781	0.07414151
133	0xbd70dbf0	-0.0588035
134	0x3ca53ee4	0.02017159
135	0xbe3e7488	-0.1859914
136	0xbd66db23	-0.05636133
137	0xbdb80704	-0.08985713
138	0xbd7aad71	-0.061200563
139	0xbd07ad0c	-0.033124015
140	0x3e05c375	0.13062842
141	0xbef38594	-0.4756285
142	0xbb21817b	-0.0024643827
143	0x3e0b5c40	0.1360941
144	0x3e0731f1	0.13202645
145	0xbe34ea06	-0.17667398
146	0x3e1ad170	0.15118957
147	0xbd87a963	-0.06624105
148	0xbd324c5c	-0.043529853
149	0x3dfa914c	0.122347444
150	0x3d9b7811	0.0759126
151	0xbd87b48b	-0.06626233
152	0x3e8506ff	0.259819
153	0x3e09ad89	0.13445105
154	0xbd3ae12d	-0.0456249
155	0x3de8fc34	0.11376229
156	0x3db154fa	0.08658786
157	0xbd9c43f9	-0.07630152
158	0x3d196fa9	0.037460003
159	0x3d345c9b	0.044033628
160	0x3c498278	0.012299173
161	0x3cdc5547	0.026896132
162	0x3e69d9d0	0.22836995
163	0xbde64eae	-0.11245476
164	0xbe70fb7d	-0.23533435
165	0x3e513afd	0.20432658
166	0x3da4019d	0.0800812
167	0x3d1c9056	0.038223587
168	0x3cba9da9	0.022780256
169	0x3dc39590	0.09550011
170	0x3e763ea6	0.24047336
171	0xbd4def38	-0.050276965
172	0x3d1bbb15	0.038020212
173	0xbeeb3124	-0.4593593
174	0x3e6dec24	0.23234612
175	0x3df4cbbc	0.11952922
176	0x3daf7a30	0.08568227
177	0xbe49d633	-0.19710617
178	0xbdf6620c	-0.1203042
179	0xbd11a37a	-0.035556294
180	0x3d8bca87	0.068257384
181	0x3d2f0513	0.04272945
182	0xbda6abbb	-0.08138224
183	0x3e78132c	0.24226063
184	0x3e2738d1	0.16330267
185	0x3da08d74	0.0783948
186	0xbcc67496	-0.024225514
187	0x3e0ccc42	0.13749793
188	0xbd073601	-0.033010487
189	0x3d508c32	0.05091495
190	0x3e357ce7	0.17723428
191	0xbde70cb5	-0.112817205
192	0xbcda9905	-0.026684294
193	0xbe2859bc	-0.16440481
194	0xbbb5824e	-0.005539215
195	0xbec8163d	-0.39079466
196	0x3d9679b2	0.0734743
197	0x3c65f257	0.014034829
198	0x3bf71ca0	0.007541254
199	0xbdde981a	-0.10868855
200	0xbda6568c	-0.08121976
201	0xbdad8d9f	-0.08474278
202	0xbda8b686	-0.082379386
203	0xbdde9ffb	-0.108703576
204	0x3d0944af	0.033512767
205	0xbdc9ee80	-0.098599434
206	0xbdf50391	-0.11963571
207	0xbd1b47fa	-0.03791044
208	0xbe101245	-0.1406947
209	0xbd8eafe2	-0.06967141
210	0x3d9adcab	0.0756162
211	0xbc8ad404	-0.0169468
212	0xbd9eab66	-0.077475354
213	0x3eb2e15b	0.34937558
214	0xbe922bb0	-0.28548956
215	0x3d88cf19	0.06680126
216	0xbe224e03	-0.15850072
217	0x3d780a9b	0.06055699
218	0xbe1ad7a1	-0.15121318
219	0x3e150340	0.14552021
220	0x3c8ec751	0.017429026
221	0x3c185809	0.009298333
222	0x3dcc0538	0.09961933
223	0xbe63c1d3	-0.22241907
224	0xbd249006	-0.040176414
225	0xbe8b2de7	-0.27183458
226	0xbe1a9c01	-0.15098573
227	0xbec1da6c	-0.37861955
228	0xbdf2c03c	-0.11853072
229	0xbe5948d4	-0.21219188
230	0xbdfeccff	-0.12441444
231	0xbe1240d2	-0.1428254
232	0xbd388ee1	-0.045058135
233	0xbe2b6388	-0.16737187
234	0xbda3aafd	-0.07991598
235	0xbca3be63	-0.019988244
236	0xbc1d49cd	-0.009600115
237	0x3d9ed537	0.07755511
238	0xbe1426ce	-0.14467928
239	0xbe796adc	-0.2435717
240	0xbdd0b938	-0.10191578
241	0xbde5a6e7	-0.11213475
242	0x3d1c7e54	0.038206413
243	0xbcdcd909	-0.02695896
244	0x3e2c752f	0.16841577
245	0x3c4d6bce	0.01253791
246	0xbdeec377	-0.11658376
247	0xbe7de7b9	-0.24795426
248	0xbdd8d075	-0.10586635
249	0xbe5dd3c6	-0.21662816
250	0xbece4ecb	-0.4029449
251	0x3c606111	0.013695017
252	0xbe01e51f	-0.12685059
253	0x3ce22f16	0.027610343
254	0x3d0515ea	0.032491602
255	0x3d81ca3f	0.063374035

weight_hh_l0 f4 [256, 64]
0	0xbee28050	-0.4423852
1	0x3dac49e8	0.08412534
2	0x3d3683ea	0.044559397
3	0xbd279bee	-0.04092019
4	0x3dc2e42d	0.09516177
5	0x3de2781a	0.11058064
6	0x3ae278c6	0.0017278425
7	0xbc66df5e	-0.014091341
8	0x3cce1871	0.025158139
9	0xbe25922d	-0.16169043
10	0x3d1b6be1	0.03794468
11	0xbe543c08	-0.20726025
12	0xbc83e3c8	-0.016099826
13	0x3e9e07aa	0.30865222
14	0xbf15d7db	-0.58532494
15	0x3e5d7cdd	0.21629663
16	0xbc9a06c6	-0.018802058
17	0xbd8b5cbc	-0.06804797
18	0x3e507f4d	0.20361061
19	0x3df70266	0.12061004
20	0x3d9b0fdd	0.07571385
21	0xbc1e7fb4	-0.0096740015
22	0x3dcc6dc9	0.09981877
23	0x3dcba8e0	0.0994432
24	0xbda6d321	-0.081457384
25	0x3f01e510	0.50740147
26	0x3e020562	0.12697366
27	0x3ce610a7	0.028084112
28	0x3d562ed0	0.052290738
29	0xbdfd3557	-0.123636894
30	0xbe47910b	-0.19488923
31	0xbd08136f	-0.03322166
32	0xbe89dc01	-0.26925662
33	0x3d9c3a50	0.0762831
34	0x3e5adf7c	0.21374315
35	0xbb60ecac	-0.0034320755
36	0xbcd65cf4	-0.02616737
37	0xbe18a4ae	-0.1490657
38	0x3dce00c8	0.10058743
39	0x3e277ab1	0.16355397
40	0xbe79b53e	-0.24385545
41	0xbe122670	-0.14272475
42	0x3db5a2bf	0.08868932
43	0xbdbc80e5	-0.09204272
44	0xbd07d45d	-0.03316151
45	0x3ea8ad24	0.32944596
46	0x3db90ff5	0.09036247
47	0xbc8c5155	-0.017128626
48	0xbea4928d	-0.3214306
49	0xbe194cae	-0.14970657
50	0x3e3c19c6	0.18369207
51	0xbbcc9c2d	-0.0062442035
52	0x3d1f5b7c	0.038905606
53	0x3e98f987	0.29877874
54	0xbd78b337	-0.060717788
55	0x3e0c4130	0.13696742
56	0x3c902210	0.017594367
57	0x3e0db1c3	0.13837342
58	0xbd7f2080	-0.062286854
59	0xbd05214a	-0.03250245
60	0x3ea22df0	0.31675673
61	0x3e9adcf0	0.30246687
62	0xbdf1d784	-0.118086845
63	0xbe4b0f73	-0.19830112
64	0xbeb16c91	-0.34653142
65	0x3d715cf3	0.058926534
66	0x3de33740	0.110945225
67	0xbe988d71	-0.2979541
68	0x3d9ddb15	0.07707802
69	0x3e97707b	0.29578003
70	0xbdfaa200	-0.1223793
71	0xbe03f5a5	-0.12886675
72	0xbf13d817	-0.577516
73	0xbab26e5c	-0.0013613212
74	0x3e013dc1	0.12621213
75	0xbe702e31	-0.2345512
76	0x3efa4545	0.48880973
77	0x3dd3d4e8	0.10343343
78	0xbe5a7b97	-0.21336208
79	0xbe81dd52	-0.25364166
80	0x3c5a2236	0.013313821
81	0xbf064f4a	-0.52464736
82	0x3d82d449	0.063881464
83	0x3dd61697	0.104535274
84	0xbe90dff9	-0.28295878
85	0xbd9cba77	-0.07652753
86	0x3f5727d8	0.8404517
87	0xbec299ca	-0.38007957
88	0xbe42c4bb	-0.19020359
89	0xbd96f24d	-0.07370434
90	0xbe9da28a	-0.3078807
91	0xbd78526e	-0.060625486
92	0x3e6cd27b	0.23127167
93	0xbd99bf3e	-0.0750718
94	0xbe07e031	-0.13269116
95	0xbdbfa878	-0.09358305
96	0x3e18a3f3	0.14906292
97	0xbdee5a0a	-0.11638267
98	0xbdbf7afa	-0.09349628
99	0xbe0d2e3d	-0.1378717
100	0x3c41fab0	0.011839554
101	0xbe6ec9d5	-0.2331918
102	0x3e9d9ca2	0.30783564
103	0xbd1dcfac	-0.03852813
104	0xbd13992a	-0.03603474
105	0x3ef47ede	0.47753042
106	0xbe7dbd08	-0.24779141
107	0xbd5d89e1	-0.05408657
108	0x3e640530	0.22267604
109	0x3e78c1e8	0.2429272
110	0xbedd4e13	-0.43223628
111	0xbe8900a8	-0.26758313
112	0xbefebe9c	-0.49754798
113	0xbeae66cf	-0.34062812
114	0x3d017da1	0.03161395
115	0x3deb735b	0.11496612
116	0xbd8a531e	-0.067541346
117	0x3cb06a02	0.021534923
118	0x3cddf840	0.027095914
119	0x3e540453	0.20704775
120	0xbe3ff0e1	-0.18744232
121	0x3d69f99c	0.05712281
122	0x3eb6f0de	0.35730642
123	0x3ee78fdf	0.45226952
124	0x3c907e95	0.017638484
125	0x3e2331fa	0.15937033
126	0xbea62211	-0.32447866
127	0xbcdb9807	-0.02680589
128	0xbd9a4175	-0.07532016
129	0xbda899a2	-0.08232428
130	0xbd499fa8	-0.049224526
131	0xbecd56ac	-0.40105188
132	0x3e872c90	0.26401186
133	0x3c4e5bbf	0.012595116
134	0xbe26da68	-0.16294253
135	0x3f1903f9	0.59771687
136	0x3de917be	0.113814816
137	0x3e6c9f99	0.23107757
138	0x3d93ab65	0.07210425
139	0xbd37e10e	-0.044892363
140	0xbeef2b82	-0.4671288
141	0xbd8a4d2e	-0.06753002
142	0x3d29ab64	0.041423216
143	0xbeeeca9d	-0.46638957
144	0xbe8428f9	-0.2581251
145	0x3ea25605	0.31706253
146	0xbeb36915	-0.3504111
147	0x3d4589f8	0.04822728
148	0xbda9e761	-0.08296085
149	0xbd1327d8	-0.03592667
150	0x3ead5f9f	0.33862016
151	0x3da16176	0.07879917
152	0x3d8f3818	0.06993121
153	0xbe3aff20	-0.18261385
154	0x3eea8d9b	0.4581116
155	0x3e0e7ac1	0.13914014
156	0xbde48311	-0.111578114
157	0x3f0932fa	0.5359341
158	0xbdb62ba6	-0.08895044
159	0x3e9e266b	0.30888686
160	0xbe7d7c35	-0.24754412
161	0x3e653ba7	0.22386037
162	0x3dc2ff7c	0.09521386
163	0xbeb8e2ea	-0.36110622
164	0x3dce1d0b	0.10064133
165	0x3e12d726	0.14339885
166	0x3e056f4a	0.13030735
167	0x3e817d72	0.2529102
168	0x3dcf4e1f	0.10122322
169	0xbe0d50fd	-0.13800426
170	0x3ec44eac	0.38341272
171	0xbe7c3827	-0.24630795
172	0xbe669b7d	-0.22520252
173	0xbe6641fa	-0.22486106
174	0x3d852c93	0.065026425
175	0xbea0958f	-0.31364104
176	0x3e50fe50	0.20409513
177	0xbc0f79c1	-0.008757056
178	0xbd6a009c	-0.057129487
179	0x3ec37320	0.3817377
180	0x3e5a04e4	0.21290928
181	0x3e9b9b33	0.30391845
182	0x3e4c0a3c	0.19925779
183	0xbe42d49f	-0.19026421
184	0x3ef55943	0.47919664
185	0xbe8c5bcb	-0.27413782
186	0x3deaabf9	0.114585824
187	0xbea23d95	-0.31687608
188	0xbee5397f	-0.4477043
189	0x3d1070cf	0.035263833
190	0x3e6033c4	0.21894747
191	0xbee25358	-0.4420421
192	0xbe22e6f0	-0.15908408
193	0x3ec1a048	0.37817597
194	0x3d65ea68	0.05613175
195	0xbe77bdbc	-0.24193472
196	0xbf0c4264	-0.54788804
197	0x3c7c04ab	0.015381972
198	0xbd186688	-0.037207156
199	0xbea433d2	-0.32070786
200	0xbe7fed70	-0.24992919
201	0xbd9099eb	-0.070606075
202	0xbb28a2d4	-0.0025731819
203	0xbe0349c2	-0.12821105
204	0x3e9072c4	0.2821256
205	0x3eda9a5e	0.42695898
206	0xbdc2caae	-0.09511314
207	0x3d1f51cb	0.038896363
208	0xbd041f8e	-0.032256655
209	0x3c0f423c	0.008743819
210	0x3e95ff21	0.2929621
211	0xbdbe63e1	-0.09296394
212	0x3e40fdbc	0.18846792
213	0x3d238aba	0.03992722
214	0xbf08e8cc	-0.5348022
215	0xbdcafe2a	-0.09911759
216	0xbd6861e3	-0.056733977
217	0xbcf7d756	-0.030254047
218	0xbcbc966e	-0.02302095
219	0xbde6e169	-0.11273462
220	0xbb11e4e8	-0.0022261683
221	0x3e4c4aab	0.19950359
222	0xbe183eb3	-0.14867668
223	0x3dd37dc5	0.10326723
224	0x3e45952f	0.1929519
225	0x3e470720	0.19436312
226	0x3e34ba11	0.17649104
227	0xbd301f36	-0.042998515
228	0x3d51e186	0.051240467
229	0x3d44a809	0.048011813
230	0x3e3124a4	0.17299134
231	0xbead9a82	-0.33906943
232	0x3d90a9aa	0.07063611
233	0xbc57678d	-0.013147247
234	0xbea95684	-0.3307382
235	0x3e8e3ae7	0.27779314
236	0x3e002700	0.12514877
237	0x3d3f5d42	0.046719797
238	0x3ca31be7	0.019910766
239	0x3e64b2ef	0.22333883
240	0xbf14fab6	-0.58195055
241	0x3f41b225	0.7566245
242	0xbd874535	-0.06604997
243	0xbe60ced5	-0.219539
244	0xbb2849a1	-0.0025678652
245	0x3d7cdbe2	0.061733134
246	0xbf1abc3c	-0.6044347
247	0x3ed0369d	0.40666667
248	0xbe4b8ea7	-0.19878636
249	0xbead4b45	-0.3384649
250	0xbe99de4d	-0.30052415
251	0xbd8db6f4	-0.06919661
252	0xbe4ad33f	-0.19807146
253	0x3dac676e	0.08418165
254	0xbe530289	-0.20606436
255	0x3c99889e	0.018741902
